# yolo11n + P2 小目标检测头
# 适用场景：检测距离较远或尺寸较小的目标（如流水线小零件）
nc: 80
scales:
  n: [0.50, 0.25, 1024]

backbone:
  - [-1, 1, Conv, [64, 3, 2]]           # 0-P1/2
  - [-1, 1, Conv, [128, 3, 2]]          # 1-P2/4  ← 新增引用点
  - [-1, 2, C3k2, [256, False, 0.25]]   # 2
  - [-1, 1, Conv, [256, 3, 2]]          # 3-P3/8
  - [-1, 2, C3k2, [512, False, 0.25]]   # 4
  - [-1, 1, Conv, [512, 3, 2]]          # 5-P4/16
  - [-1, 2, C3k2, [512, True]]          # 6
  - [-1, 1, Conv, [1024, 3, 2]]         # 7-P5/32
  - [-1, 2, C3k2, [1024, True]]         # 8
  - [-1, 1, SPPF, [1024, 5]]            # 9
  - [-1, 2, C2PSA, [1024]]              # 10

head:
  - [-1, 1, nn.Upsample, [None, 2, "nearest"]]   # 11
  - [[-1, 6], 1, Concat, [1]]                    # 12 cat P4
  - [-1, 2, C3k2, [512, False]]                  # 13

  - [-1, 1, nn.Upsample, [None, 2, "nearest"]]   # 14
  - [[-1, 4], 1, Concat, [1]]                    # 15 cat P3
  - [-1, 2, C3k2, [256, False]]                  # 16 (P3/8)

  - [-1, 1, nn.Upsample, [None, 2, "nearest"]]   # 17 ← 新增
  - [[-1, 2], 1, Concat, [1]]                    # 18 cat P2 ← 新增
  - [-1, 2, C3k2, [128, False]]                  # 19 (P2/4) ← 新增检测头

  - [-1, 1, Conv, [128, 3, 2]]                   # 20
  - [[-1, 16], 1, Concat, [1]]                   # 21 cat P3
  - [-1, 2, C3k2, [256, False]]                  # 22 (P3/8)

  - [-1, 1, Conv, [256, 3, 2]]                   # 23
  - [[-1, 13], 1, Concat, [1]]                   # 24 cat P4
  - [-1, 2, C3k2, [512, False]]                  # 25 (P4/16)

  - [-1, 1, Conv, [512, 3, 2]]                   # 26
  - [[-1, 10], 1, Concat, [1]]                   # 27 cat P5
  - [-1, 2, C3k2, [1024, True]]                  # 28 (P5/32)

  - [[19, 22, 25, 28], 1, Detect, [nc]]          # Detect(P2, P3, P4, P5)
